data/Data_standing/true_theta_logs.npy (npy, 96096 bytes, 1 tensors)

array f8 [2999, 4]
000000 c5 30 82 e4 e3 d1 7b 3f 25 82 c9 67 23 fb a1 3f
       0.006791963773263803 0.03511915819104087
000010 82 90 73 3f b0 76 d1 3f 70 3e bd 73 ac c3 ee 3f
       0.2728691692011652 0.9613859425098337
000020 b3 99 60 5e 7f dc 7b 3f 1b 98 35 48 c4 fa a1 3f
       0.006802079709848407 0.03511632329427546
000030 c8 fd b6 b0 54 76 d1 3f 82 e9 16 83 b9 c3 ee 3f
       0.27284734017663625 0.9613921699849899
000040 b3 99 60 5e 7f dc 7b 3f 1b 98 35 48 c4 fa a1 3f
       0.006802079709848407 0.03511632329427546
000050 c8 fd b6 b0 54 76 d1 3f 82 e9 16 83 b9 c3 ee 3f
       0.27284734017663625 0.9613921699849899
000060 b3 99 60 5e 7f dc 7b 3f 1b 98 35 48 c4 fa a1 3f
       0.006802079709848407 0.03511632329427546
000070 c8 fd b6 b0 54 76 d1 3f 82 e9 16 83 b9 c3 ee 3f
       0.27284734017663625 0.9613921699849899
000080 b3 99 60 5e 7f dc 7b 3f 1b 98 35 48 c4 fa a1 3f
       0.006802079709848407 0.03511632329427546
000090 c8 fd b6 b0 54 76 d1 3f 82 e9 16 83 b9 c3 ee 3f
       0.27284734017663625 0.9613921699849899
0000a0 08 5a 65 e5 02 89 90 3f 4a be 63 bc 63 57 a0 3f
       0.016147656680312067 0.031916729685573644
0000b0 88 1c 45 cf 17 e6 40 bf f7 eb c0 b7 c1 fa ef 3f
       -0.0005157104738281607 0.9993599499642859
0000c0 09 85 c8 81 11 89 90 3f 6f 26 c4 dd 2d 57 a0 3f
       0.016147874399512072 0.03191512424571107
0000d0 b3 03 57 c2 fc e4 40 bf d4 86 6d d1 c1 fa ef 3f
       -0.0005155786681641988 0.9993599977862808
0000e0 cb e9 bb 2d 32 89 90 3f 0e a7 54 f8 ae 56 a0 3f
       0.016148361245521586 0.0319113424432783
0000f0 7e 6c ce 21 7a e5 40 bf cf 43 06 0e c2 fa ef 3f
       -0.0005156370494775601 0.9993601106563065
000100 76 7e 8f 1a 63 89 90 3f fd 93 42 57 f0 55 a0 3f
       0.016149090286374755 0.0319056612509385
000110 6a 18 1e c9 59 e6 40 bf 1d 6b 0e 69 c2 fa ef 3f
       -0.0005157411962819606 0.9993602802163398
000120 65 ef 7c 9b a4 89 90 3f d4 00 9e a8 f2 54 a0 3f
       0.01615006636642082 0.03189810093226844
000130 6f e7 b1 de 9c e7 40 bf 00 c4 1d e2 c2 fa ef 3f
       -0.0005158916441267823 0.9993605057080686
000140 97 78 10 c7 f6 89 90 3f c5 d0 3c b6 b5 53 a0 3f
       0.016151290798113917 0.031888655181690186
000150 5b be 55 51 5c e9 40 bf 67 40 46 79 c3 fa ef 3f
       -0.0005161000032511508 0.9993607872620601
000160 e4 4d 25 c8 59 8a 90 3f 55 0f 96 13 39 52 a0 3f
       0.016152766076016692 0.03187731136406905
000170 23 f4 61 c5 c5 eb 40 bf a2 bb b0 2e c4 fa ef 3f
       -0.0005163875273549483 0.9993611251755861
000180 a5 48 b9 85 cd 8a 90 3f d3 26 9a 25 7d 50 a0 3f
       0.01615449074444854 0.03186408123026543
000190 2d e0 f9 2a 9f ee 40 bf 50 d1 25 02 c5 fa ef 3f
       -0.0005167271792307964 0.9993615190456158
0001a0 3d 17 6e f7 51 8b 90 3f 8d 62 b0 1c 82 4e a0 3f
       0.016156464316302566 0.03184897041518751
0001b0 03 5c c4 49 e8 f1 40 bf 75 6c 83 f3 c5 fa ef 3f
       -0.0005171188563818377 0.9993619686241703
0001c0 64 5c 6b 13 e7 8b 90 3f 2b d5 94 2f 48 4c a0 3f
       0.016158686218514254 0.03183198529078831
0001d0 bf 79 5b 12 a1 f5 40 bf 3d fc a2 02 c7 fa ef 3f
       -0.0005175625307989802 0.9993624736306469
0001e0 eb a8 b6 ce 8c 8c 90 3f fd 3d af 9b cf 49 a0 3f
       0.016161155812064825 0.031813133005581286
0001f0 70 b2 2b 76 c9 f9 40 bf fe 43 59 2f c8 fa ef 3f
       -0.000518058175968129 0.9993630337504553
000200 96 d8 38 1d 43 8d 90 3f 81 7c 0f a5 18 47 a0 3f
       0.016163872393200572 0.03179242148302653
000210 94 4d ae 66 61 fe 40 bf 72 63 76 79 c9 fa ef 3f
       -0.000518605765466184 0.9993636486352513
000220 c8 52 c2 f1 09 8e 90 3f b5 dd 68 96 23 44 a0 3f
       0.016166835194399792 0.0317698594193944
000230 48 0c 87 d5 68 03 41 bf 6c e0 c5 e0 ca fa ef 3f
       -0.0005192052731718489 0.9993643179032126
000240 05 b5 0f 3e e1 8e 90 3f 7f c1 0c c1 f0 40 a0 3f
       0.016170043385433725 0.031745456281330846
000250 2d 17 aa b4 df 08 41 bf 92 b1 0e 65 cc fa ef 3f
       -0.0005198566735351344 0.9993650411393438
000260 84 eb ce f2 c8 8f 90 3f bd 9a e4 7c 80 3d a0 3f
       0.016173496074525243 0.03171922230312905
000270 49 27 86 f6 c5 0e 41 bf 0f 4a 13 06 ce fa ef 3f
       -0.0005205599418769215 0.9993658178958088
000280 e4 b4 a4 ff c0 90 90 3f a1 4d 6b 28 d3 39 a0 3f
       0.016177192309602698 0.03169116848371379
000290 c8 4a 32 8e 1b 15 41 bf 43 a6 91 c3 cf fa ef 3f
       -0.000521315054714166 0.9993666476922914
0002a0 7a 8d 32 53 c9 91 90 3f 64 f0 a5 28 e9 35 a0 3f
       0.016181131079645784 0.03166130658334579
0002b0 91 86 9f 6f e0 1b 41 bf 67 59 43 9d d1 fa ef 3f
       -0.0005221219901125497 0.999367530016383
0002c0 c9 fe 1c db e1 92 90 3f 52 f2 1b e9 c2 31 a0 3f
       0.016185311316120363 0.031629649120053074
0002d0 41 19 ce 8f 14 23 41 bf 14 9c dd 92 d3 fa ef 3f
       -0.0005229807280649272 0.9993684643239953
0002e0 43 4f 12 84 0a 94 90 3f 10 ad ce db 60 2d a0 3f
       0.016189731894498804 0.031596209365796324
0002f0 5c 50 06 e5 b7 2a 41 bf c2 5b 11 a4 d5 fa ef 3f
       -0.0005238912508951465 0.9993694500398009
000300 b8 8e d1 39 43 95 90 3f 51 64 30 79 c3 28 a0 3f
       0.016194391635862643 0.03156100134237561
000310 bd e5 14 67 ca 32 41 bf 19 4b 8b d0 d7 fa ef 3f
       -0.0005248535436869689 0.9993704865576972
000320 3d fb 31 e7 8b 96 90 3f 28 b8 1a 40 eb 23 a0 3f
       0.01619928930858382 0.031524039817086014
000330 3a 92 8a 0f 4c 3b 41 bf 22 f3 f3 17 da fa ef 3f
       -0.0005258675947357801 0.9993715732412947
000340 b0 ba 2a 76 e4 97 90 3f 28 8e c4 b5 d8 1e a0 3f
       0.016204423630081066 0.031485340298129494
000350 e8 17 ff d9 3c 44 41 bf 4a c5 ef 79 dc fa ef 3f
       -0.0005269333960249397 0.9993727094244289
000360 82 e4 da cf 4c 99 90 3f 88 75 b7 65 8c 19 a0 3f
       0.016209793268647583 0.031444919029790575
000370 f4 5a 57 c4 9c 4d 41 bf 31 2e 1f f6 de fa ef 3f
       -0.0005280509437238499 0.9993738944116953
000380 8a d7 91 dc c4 9a 90 3f bb 8a c4 e1 06 14 a0 3f
       0.016215396845346265 0.03140279298738365
000390 0a a7 0e cf 6b 57 41 bf 3e a9 1e 8c e1 fa ef 3f
       -0.0005292202387085787 0.9993751274790055
0003a0 c4 d7 d7 83 4c 9c 90 3f ef de f8 c1 48 0e a0 3f
       0.01622123293596879 0.03135897987197988
0003b0 3a d3 82 fd a9 61 41 bf e9 d4 86 3b e4 fa ef 3f
       -0.0005304412871028682 0.9993764078741637
0003c0 49 ef 76 ac e3 9d 90 3f b4 67 91 a4 52 08 a0 3f
       0.016227300073054427 0.03131349810492115
0003d0 cd 5f 43 56 57 6c 41 bf c2 87 ec 03 e7 fa ef 3f
       -0.0005317141008402915 0.9993777348174648
0003e0 57 0e 84 3c 8a 9f 90 3f 91 7b ee 2d 25 02 a0 3f
       0.016233596747964842 0.031266366822129694
0003f0 7a 5b 63 e3 73 77 41 bf 21 e6 e0 e4 e9 fa ef 3f
       -0.0005330386982461543 0.9993791075023105
000400 d6 65 68 19 40 a1 90 3f ad bf 0d 11 82 f7 9f 3f
       0.016240121413010865 0.03121760586822091
000410 81 e1 cd b2 ff 82 41 bf 73 78 f1 dd ec fa ef 3f
       -0.0005344151046378505 0.9993805250958431
000420 fd f7 ea 27 05 a3 90 3f fc d8 b4 c9 4d ea 9f 3f
       0.016246872483627318 0.031167235790428002
000430 84 3e 9d d6 fa 8e 41 bf 2e 42 a8 ee ef fa ef 3f
       -0.0005358433529440575 0.9993819867395979
000440 81 5a 3a 4c d9 a4 90 3f ff 94 c8 f2 ae dc 9f 3f
       0.01625384834059185 0.03111527783234624
000450 2a 9e 74 65 65 9b 41 bf 4c d9 8b 16 f3 fa ef 3f
       -0.0005373234843419384 0.9993834915501707
000460 0c a6 f6 69 bc a6 90 3f 55 a3 19 05 a7 ce 9f 3f
       0.016261047332283993 0.031061753927505837
000470 f0 fa db 7a 3f a8 41 bf 59 7e 1f 55 f6 fa ef 3f
       -0.0005388555489103924 0.9993850386199014
000480 75 8e 3b 64 ae a8 90 3f 88 14 36 85 37 c0 9f 3f
       0.016268467776980395 0.031006686692780977
000490 28 6d 9e 37 89 b5 41 bf f9 34 e3 a9 f9 fa ef 3f
       -0.000540439606300157 0.9993866270175708
0004a0 59 9f aa 1d af aa 90 3f 0a af 4b 03 62 b1 9f 3f
       0.016276107965182394 0.030950099421644096
0004b0 14 c4 2a c2 42 c3 41 bf ea dc 53 14 fd fa ef 3f
       -0.0005420757264201792 0.9993882557891116
0004c0 30 ac ba 81 89 ae 90 3f 77 47 44 9c f7 c3 9f 3f
       0.016290806334535002 0.03102099314953174
0004d0 32 11 23 7b a0 20 42 bf e3 11 6c f4 f7 fa ef 3f
       -0.0005532058333064581 0.9993858121748044
0004e0 2e 6c dc e1 3b b5 90 3f 30 97 f0 e1 d3 f7 9f 3f
       0.01631635252043056 0.031218825021048946
0004f0 bf 4a d3 ee af e4 42 bf db 64 4b 22 ea fa ef 3f
       -0.0005765780494136548 0.9993792218985179
000500 24 3d 8c a3 be bd 90 3f 70 bc 8c fc 41 21 a0 3f
       0.016348818523565303 0.03150373657114691
000510 b0 10 dc db 43 2c 44 bf aa f9 e2 38 d6 fa ef 3f
       -0.0006156283704688206 0.9993697272364461
000520 1b 8a 05 5f 37 c7 90 3f 93 6b f5 cb 26 4e a0 3f
       0.016384949850712354 0.031846249005602754
000530 13 5c 57 6d 9f 07 46 bf 46 30 56 23 be fa ef 3f
       -0.0006722954228121101 0.9993582430047432
000540 c6 ba f0 48 f2 d0 90 3f 12 e7 ae 49 c2 7f a0 3f
       0.016422067357946067 0.03222472333386696
000550 90 27 9e 2b 0b 81 48 bf 17 2c df 4d a3 fa ef 3f
       -0.0007478050749665111 0.9993454476292553
000560 73 a6 ad e0 5a da 90 3f 68 90 a0 4b fd b3 a0 3f
       0.016457958186413223 0.03262321041282307
000570 e1 87 cf 21 9d 9d 4b bf 06 8c 10 cb 86 fa ef 3f
       -0.0008427636381578251 0.9993318525415595
000580 4d 22 37 5d f7 e2 90 3f 4c 01 81 70 4e e9 a0 3f
       0.016490807594694613 0.03302998660410825
000590 6c b6 9a 99 87 5e 4f bf d1 6b 37 6b 69 fa ef 3f
       -0.0009573137387712378 0.9993178457328843
0005a0 b4 0b 0f 5b 64 ea 90 3f 65 23 f4 c7 94 1e a1 3f
       0.016519134576593777 0.03343644085732115
0005b0 81 89 6e d8 fb e0 51 bf 42 80 67 cd 4b fa ef 3f
       -0.0010912379673092278 0.9993037235071898
0005c0 8c b1 6b 76 52 f0 90 3f ae 50 02 73 fe 52 a1 3f
       0.01654175613195856 0.033836318530263795
0005d0 a8 ee d3 30 f1 61 54 bf 04 88 68 6a 2e fa ef 3f
       -0.001244054353548055 0.9992897108352286
0005e0 de db 89 13 83 f4 90 3f 7e c7 c6 97 f3 85 a1 3f
       0.016557739322219926 0.0342250941061044
0005f0 9d f2 72 bc 50 2f 57 bf 6a 47 0e 9e 11 fa ef 3f
       -0.0014150894583472636 0.9992759787585161
000600 10 01 f5 d6 78 ee 90 3f ad 84 bb 6c 65 c7 a1 3f
       0.01653469860070894 0.0347243972044081
000610 9d 8c f7 50 9c 92 5a bf b7 7e 10 a2 ed f9 ef 3f
       -0.0016218687559266594 0.9992588200875251
000620 59 b7 f0 09 97 dd 90 3f 7e 93 c1 29 18 10 a2 3f
       0.016470298749644872 0.03527904042929374
000630 bb a9 aa 25 98 8d 5e bf 16 ff 25 3b c6 f9 ef 3f
       -0.001864813405215145 0.9992400317423484
000640 a6 b8 b4 dc ad c1 90 3f d4 7d 2c e1 c7 5b a2 3f
       0.016363827319928824 0.03585648177817871
000650 36 20 1e af 14 8d 61 bf f4 30 7c a0 9d f9 ef 3f
       -0.002142467878858435 0.9992206701731718
000660 6e bb ed d8 ca 9a 90 3f b4 c0 9c 29 f5 a7 a2 3f
       0.016215486040376197 0.036437665300014827
000670 db b7 81 22 f1 16 64 bf 67 bf c6 1c 75 f9 ef 3f
       -0.002452345816030805 0.9992013513601535
000680 cb ac 43 db 1b 69 90 3f 40 c9 45 d9 2b f3 a2 3f
       0.016025958307108106 0.037011499664816316
000690 f7 16 9f 52 12 de 66 bf ef 92 a4 6d 4d f9 ef 3f
       -0.0027914388528839057 0.9991824284994361
0006a0 e6 0c e2 e8 de 2c 90 3f 3e e6 08 2e 97 3c a3 3f
       0.015796168293047773 0.03757164418170732
0006b0 00 8e 42 91 ae db 69 bf 5e 09 02 fb 26 f9 ef 3f
       -0.0031565103073079026 0.9991640951632623
0006c0 9d f6 4a 7d b1 cc 8f 3f c8 6f c6 70 c1 83 a3 3f
       0.015527140270360557 0.03811459066056916
0006d0 fe 9a e6 6b e0 08 6d bf 4d a5 9e f8 01 f9 ef 3f
       -0.003544271777360718 0.9991464477399546
0006e0 94 87 15 b6 9e 2b 8f 3f b3 ad d7 a9 6d c8 a3 3f
       0.015219917232290027 0.03863852213165888
0006f0 27 f9 2a d5 6d 2f 70 bf 12 4a 6e 7a de f8 ef 3f
       -0.003951481851514316 0.9991295233942898
000700 78 17 c2 2b 0f 77 8e 3f d7 a6 ff ee 81 0a a4 3f
       0.01487552501954402 0.03914266626800405
000710 3b d7 9c a8 8a eb 71 bf 2c 5e 38 80 bc f8 ef 3f
       -0.004375020633053779 0.9991133217144514
000720 10 1c 6d ab 84 af 8d 3f 6f 14 27 71 f7 49 a4 3f
       0.014494930726540317 0.03962682014711382
000730 7d b0 2c f6 a9 b5 73 bf 6d e3 c4 fe 9b f8 ef 3f
       -0.004811920082641416 0.9990978218039409
000740 0b 95 b2 00 f0 f0 8c 3f cd 99 f9 19 99 8a a4 3f
       0.014131426831520707 0.04011991922452616
000750 40 1e 2a 56 3a 91 75 bf 4f 20 4c d9 78 f8 ef 3f
       -0.005265453221575067 0.9990810627068728
000760 78 16 e1 e9 51 3b 8c 3f be ff 4a 01 0e ca a4 3f
       0.013785018873146301 0.04060405507834684
000770 13 e9 3f 3e 45 7b 77 bf f4 2d 05 96 54 f8 ef 3f
       -0.005732794266800195 0.9990637712557473
000780 53 34 35 ac db 8e 8b 3f 7f b0 bd be fb 06 a5 3f
       0.013456073944917579 0.04106890395527873
000790 f0 be c8 c3 71 70 79 bf 95 d2 ef 26 30 f8 ef 3f
       -0.006210750955275776 0.9990463982090484
0007a0 39 da 8b ed d5 eb 8a 3f e8 18 c8 80 9f 40 a5 3f
       0.013145133315885281 0.04150865981141455
0007b0 f5 92 a1 fc 4c 6d 7b bf af ba 1d 25 0c f8 ef 3f
       -0.006696034173818023 0.9990292286800776
0007c0 10 14 ce 92 91 52 8a 3f b0 a8 7f bb 90 76 a5 3f
       0.012852799694664824 0.04192020691682907
0007d0 1e 5f 7d 6a 74 6e 7d bf 99 56 25 f4 e8 f7 ef 3f
       -0.007185415983108871 0.9990124481652912
0007e0 38 f6 54 f4 5e c3 89 3f 36 b5 b7 ec 99 a8 a5 3f
       0.012579671698968217 0.04230195059413193
0007f0 15 31 4f dd 00 71 7f bf fd 32 eb d7 c6 f7 ef 3f
       -0.0076761277932287 0.9989961831248305
