data/simu/theta_out.npy (npy, 48128 bytes, 1 tensors)

array f8 [3, 2000]
00000000: 0000 0000 0000 0000 0000 0000 0000 0000
00000010: 0000 0000 0000 0000 0000 0000 0000 0000
00000020: 0000 0000 0000 0000 0000 0000 0000 0000
00000030: 0000 0000 0000 0000 0000 0000 0000 0000
00000040: 0000 0000 0000 0000 3534 a185 8956 c13e
00000050: 8268 a759 8856 d13e 21d1 4668 c901 da3e
00000060: 7678 fd0a e410 e73e f77d 2003 7090 f03e
00000070: fbf4 f38e 6b98 f53e 9023 9019 e925 fd3e
00000080: c722 292e b159 023f 936f 6c1b 6b20 063f
00000090: c61f 9348 2228 0b3f 4ddd 48be ea17 103f
000000a0: 6984 92fd c19b 123f ff8d a6bf a0c0 153f
000000b0: d7b8 7259 7ce5 183f 3597 9f57 540a 1c3f
000000c0: 13da ff7f 45d1 1f3f 603e e10a 19cc 213f
000000d0: ddac 89c8 8caf 233f 1ec0 1d84 9de3 253f
000000e0: 1c4f 1423 ab17 283f eb9c c157 b54b 2a3f
000000f0: cae5 bdb6 21d0 2c3f 0387 2109 8a54 2f3f
00000100: c321 f9fb 76ec 303f 18b8 8f96 b856 323f
00000110: dd5b 34a5 f7c0 333f 2e74 fbf7 332b 353f
00000120: b90f ec71 5abd 363f 8cb2 48cd 7d4f 383f
00000130: 333d efd5 9de1 393f 109f 9b84 7e9b 3b3f
00000140: ceb3 be75 5b55 3d3f f0f6 3671 340f 3f3f
00000150: c1f7 ae48 5078 403f 5ec1 ac24 0469 413f
00000160: e78a 9fae b559 423f b6ac 8d63 5e36 3f3f
00000170: 6c06 4838 4db9 393f cc3e a8cb 383c 343f
00000180: 0b79 d79e 53e8 223f c104 50cc 5c3e f5be
00000190: 71cf 185f e837 28bf 6ef1 59e0 b3ad 3abf
000001a0: 4bc8 0314 b79f 44bf ff50 f743 90e8 4bbf
000001b0: 51d0 4cc7 6945 52bf af37 7522 8896 56bf
000001c0: d883 5176 a2e7 5abf 6564 dab2 783a 61bf
000001d0: 738f a126 1d01 65bf 5259 c0f6 bdc7 68bf
000001e0: 8bb6 d9b4 49af 6dbf 3159 3133 684b 71bf
000001f0: b241 ec9e 28bf 73bf 0385 8dad 5c9d 76bf
00000200: e4b3 c9f6 8c7b 79bf 869a 2303 b959 7cbf
00000210: 9f31 c18b c98a 7fbf 156e 3672 ea5d 81bf
00000220: 94fa 6044 6df6 82bf a1da 8fb0 edb0 84bf
00000230: b5cd 07be 6a6b 86bf d744 5725 e425 88bf
00000240: ec15 37f3 b115 8abf c2d7 ae84 7b05 8cbf
00000250: b22d 258a 40f5 8dbf 15d5 5c16 3306 90bf
00000260: b235 4451 c311 91bf 9b0b 0ccb 501d 92bf
00000270: 21cf a4c6 4638 93bf ef78 62ac 3953 94bf
00000280: 0e7c 484f 296e 95bf f14c 8d04 d795 96bf
00000290: f753 311e 81bd 97bf b3d9 646d 27e5 98bf
000002a0: 81f6 c0b9 da17 9abf 0221 ddde 894a 9bbf
000002b0: 2864 5dac 347d 9cbf 12fa 60c4 4eab 9dbf
000002c0: 3ea3 ef35 64d9 9ebf 7f06 2369 ba03 a0bf
000002d0: 1a51 d4ea 7d97 a0bf 3c4a a8dc 3e2b a1bf
000002e0: c55f 3b28 fdbe a1bf 82f5 5ba3 8d4e a2bf
000002f0: dfea 9755 1bde a2bf e29b b529 a66d a3bf
00000300: c8c5 8923 33f8 a3bf b601 961f bd82 a4bf
00000310: 07fa ee09 440d a5bf 4eba 2cf0 1692 a5bf
00000320: d5e6 4ea8 e616 a6bf 790b d51f b39b a6bf
00000330: 42ec aebf 2f1a a7bf ee58 f705 a998 a7bf
00000340: 4196 ade1 1e17 a8bf 8f70 4e52 c78e a8bf
00000350: 87d6 4b44 6c06 a9bf a07c dda7 0d7e a9bf
00000360: df37 1c4c 87ef a9bf dc01 ba4e fd60 aabf
00000370: d568 21a1 6fd2 aabf b0f0 f48e df3d abbf
00000380: 581b 1fbb 4ba9 abbf f5f3 4318 b414 acbf
00000390: 661a 4efa fd79 acbf 258b 3efe 43df acbf
000003a0: 4253 fc17 8644 adbf 9265 9a43 73a3 adbf
000003b0: 3e04 ad78 5c02 aebf a8f4 65ac 4161 aebf
000003c0: 1b81 74ee 27b8 aebf f5a3 9327 0a0f afbf
000003d0: e937 484e e865 afbf 655b adbd 15b7 afbf
000003e0: 6082 9788 1f04 b0bf 38d0 3620 b22c b0bf
000003f0: 845f 8a7d 1153 b0bf f5f7 dac3 6e79 b0bf
00000400: 36de 76ef c99f b0bf 7bf3 3179 4fc4 b0bf
00000410: 7ee8 a4e3 d2e8 b0bf 2f0a 922b 540d b1bf
00000420: 4722 bdd5 3530 b1bf 1532 5d59 1553 b1bf
00000430: a924 a1b3 f275 b1bf de0f 99c8 5097 b1bf
00000440: 591e deb0 acb8 b1bf f097 056a 06da b1bf
00000450: dfdd d16e 71f5 b1bf e3dc 844a da10 b2bf
00000460: 14e3 a0fb 402c b2bf ae18 ea4d 8f43 b2bf
00000470: 1036 d579 db5a b2bf daea 987e 2572 b2bf
00000480: 6436 031d 7b86 b2bf 2005 bd97 ce9a b2bf
00000490: 20aa 8aee 1faf b2bf fc91 1e24 38c1 b2bf
000004a0: d083 0939 4ed3 b2bf 290d 812d 62e5 b2bf
000004b0: 9709 3d1e baf5 b2bf 905a dbf1 0f06 b3bf
000004c0: fedf eca8 6316 b3bf 2963 4d35 cb23 b3bf
000004d0: b327 b4ab 3031 b3bf 9a42 250d 943e b3bf
000004e0: 93c3 87b8 0c4a b3bf a7b7 8654 8355 b3bf
000004f0: 5ca5 79e2 f760 b3bf a5a7 a8aa 236b b3bf
00000500: 70c4 e669 4d75 b3bf 7deb c721 757f b3bf
00000510: 386a d7ee bd88 b3bf 349c 71b9 0492 b3bf
00000520: 9069 5583 499b b3bf dde9 f6df f7a3 b3bf
00000530: d5ea b240 a4ac b3bf 49aa 65a7 4eb5 b3bf
00000540: 1b9b 2b0d c7b9 b3bf 6769 de85 3dbe b3bf
00000550: 6e14 f113 b2c2 b3bf a5c6 4493 16c4 b3bf
00000560: c1de dd33 79c5 b3bf 1157 98f8 d9c6 b3bf
00000570: baa8 ad96 f8c5 b3bf 9496 0964 15c5 b3bf
00000580: 8f1e cf63 30c4 b3bf c6d2 8cb4 a1c1 b3bf
00000590: 155f 3f42 11bf b3bf 2eed 3610 7fbc b3bf
000005a0: a40d f694 b8b8 b3bf 8b52 fb63 f0b4 b3bf
000005b0: 7806 b080 26b1 b3bf dfe7 f47a 85ac b3bf
000005c0: 01a6 65cc e2a7 b3bf e8f1 7478 3ea3 b3bf
000005d0: 0f4e 45bb 929a b3bf ec65 2369 e591 b3bf
000005e0: 2968 e585 3689 b3bf 7e6d 634d 5a7d b3bf
000005f0: 18f0 2893 7c71 b3bf 4916 4b5b 9d65 b3bf
00000600: e46a 4c73 4657 b3bf 111b 041c ee48 b3bf
00000610: fe58 aa59 943a b3bf e67f 2a8b 5b2a b3bf
00000620: 3f88 ee5e 211a b3bf 712a 3cd9 e509 b3bf
00000630: 2098 f202 4cf8 b2bf 9c63 8cdf b0e6 b2bf
00000640: b122 4c73 14d5 b2bf bcd8 4f8e 3bb9 b2bf
00000650: 3a91 e87c 619d b2bf f4ea 2d44 8681 b2bf
00000660: a0f4 a72b a65d b2bf 3094 4605 c539 b2bf
00000670: 0c20 9fd6 e215 b2bf 33b2 36a6 b7eb b1bf
00000680: 6c24 6284 8bc1 b1bf c0a6 f976 5e97 b1bf
00000690: 1506 26f3 4568 b1bf 2118 5098 2c39 b1bf
000006a0: 9045 6b6c 120a b1bf b4f7 414a 27d7 b0bf
000006b0: 93a7 9b69 3ba4 b0bf d3ab 6bd0 4e71 b0bf
000006c0: 5af4 d31b 6a30 b0bf c30e 809c 09df afbf
000006d0: 5039 97dc 3d5d afbf 6bbf 1c7e 82c5 aebf
000006e0: 29e6 8931 c62d aebf 9c2f a404 0996 adbf
000006f0: d943 f207 fbec acbf 5128 6d5a ec43 acbf
00000700: d79c f409 dd9a abbf a6f1 d0ad 21e4 aabf
00000710: db0c 3cd8 652d aabf 3b16 eb96 a976 a9bf
00000720: b076 f194 2fb5 a8bf 836f c94b b5f3 a7bf
00000730: ece9 d4c8 3a32 a7bf 1d0c 01e6 6768 a6bf
00000740: d0ae dfe9 949e a5bf 0998 67e1 c1d4 a4bf
00000750: 2b4a b550 ec02 a4bf 7219 08d2 1631 a3bf
00000760: e1e9 2072 415f a2bf 708c 0bae b287 a1bf
00000770: 52d0 8224 24b0 a0bf bc0a dfc3 2bb1 9fbf
00000780: 9f85 79a5 0ffa 9dbf 4696 8248 f442 9cbf
00000790: 3119 f2c4 d98b 9abf 17c1 3b52 6dcf 98bf
000007a0: be86 36e9 0113 97bf 02f8 e5a0 9756 95bf
000007b0: 8d56 dd28 0097 93bf b39c 35ff 69d7 91bf
000007c0: 3e2a eb39 d517 90bf 2107 268f 8d6d 8cbf
000007d0: efd6 f9b0 73ab 88bf e919 c10b 5de9 84bf
000007e0: 4404 9ef4 0e00 81bf eaf1 27c9 882d 7abf
000007f0: d22d 5421 fb5a 72bf 38cc 8294 79b8 64bf
0.0 0.0 0.0 0.0 0.0 0.0 0.0 0.0
0.0 2.066854944116179e-06 4.1337056253203516e-06 6.2005470948154845e-06 1.0998716191753583e-05 1.5796860857729034e-05 2.05949699507617e-05 2.779778296616329e-05
3.5000533689604584e-05 4.2203205728535237e-05 5.179743409083853e-05 6.139154681582722e-05 7.098552250052601e-05 8.297902232939218e-05 9.497233837649513e-05 0.00010696544441620994
0.00012137400335619106 0.00013578229612897213 0.000150190291850683 0.0001670007496232814 0.00018381084513718275 0.00020062054307177306 0.0002198258547386047 0.0002390306950160113
0.00025823502435120773 0.00027982718034891404 0.00030141874340599927 0.00032300966993920293 0.0003469796956070376 0.0003709489949723997 0.0003949175206203359 0.0004212554818949646
0.0004475925722953717 0.00047392874077077565 0.0005026237498595363 0.0005313177328841003 0.0005600106353507967 0.0004762630883791795 0.0003925145649930964 0.0003087652836777199
0.000144252975060995 -2.0259479033062038e-05 -0.0001847716480810574 -0.00040708199990271185 -0.0006293910919608151 -0.0008516983434057323 -0.0011151822083777139 -0.0013786630095924226
-0.001642140058969446 -0.002103076686421223 -0.0025640076974457414 -0.0030249319297680844 -0.0036236228541415886 -0.004222304373874317 -0.0048209749936777724 -0.005521165869909031
-0.0062213426977963705 -0.006921503738544948 -0.007700717247712068 -0.00847991143273589 -0.009259084367042626 -0.01010308928560494 -0.010947069095869158 -0.011791021718553214
-0.01273669265254803 -0.01368233202616043 -0.014627937522752574 -0.01564864944449081 -0.01666932281027806 -0.01768995513249259 -0.01876936519074868 -0.019848729273342632
-0.020928044761713997 -0.022055968907193472 -0.023183839290442845 -0.024311653186680448 -0.025481622302541588 -0.02665152952911943 -0.02782137205153759 -0.028973799453746514
-0.030126157562253335 -0.03127844365509435 -0.03240579120225302 -0.03353306239673201 -0.034660254632114675 -0.03575556391840974 -0.03685079021302839 -0.037945931045036976
-0.039002988899379754 -0.04005995760508389 -0.04111683484324052 -0.042130200212672095 -0.04314347080749107 -0.04415664447380769 -0.04512166228183691 -0.046086580255790696
-0.04705139641627599 -0.04796431426731928 -0.048877127968734384 -0.04978983568320783 -0.05065558246688772 -0.0515212210275455 -0.05238674966740723 -0.053206430626660306
-0.05402599963377125 -0.054845455133523936 -0.05561822586519298 -0.056390881334001976 -0.05716342013162158 -0.057887651445706415 -0.058611764651239615 -0.059335758490285884
-0.059998748644149745 -0.060661618548529285 -0.06132436709968642 -0.06194370212931836 -0.06256291470300246 -0.06318200384595307 -0.06376752200082875 -0.06435291558861407
-0.06493818374917101 -0.0654954596411254 -0.06605260904044205 -0.06660963119251372 -0.06714188068611647 -0.067674001996416 -0.06820599446759225 -0.06871514222535732
-0.06922416036661029 -0.06973304832862914 -0.07015141444741556 -0.07056965178786671 -0.07098776000283308 -0.07134338047225938 -0.07169887279925313 -0.07205423680072034
-0.07236451586069276 -0.07267466740178863 -0.0729846913697334 -0.07326079255887658 -0.07353676693448041 -0.07381261454525102 -0.07406199682467328 -0.07431125311573283
-0.07456038355019243 -0.0747649197704844 -0.07496933166490187 -0.07517361946998805 -0.07534865861067734 -0.0755235749590769 -0.07569836882762132 -0.07585356632685476
-0.07600864253505946 -0.07616359781961353 -0.07630526619997446 -0.07644681479870102 -0.0765882440222525 -0.0767207071102471 -0.0768530519443787 -0.07698527895778641
-0.07705349036733049 -0.07712158697396419 -0.07718956934793805 -0.07721081824709104 -0.07723195568348286 -0.0772529823228434 -0.07723954847975537 -0.07722600643463756
-0.07721235691780691 -0.07717333467446527 -0.07713420741435713 -0.07709497590888212 -0.07703736912485809 -0.07697966042480624 -0.0769218506029804 -0.07685121776458413
-0.07678048601305677 -0.07670965615120162 -0.07657734939612502 -0.07644494835712806 -0.07631245392750031 -0.07613148106923082 -0.07595041840335204 -0.07576926688042208
-0.07555046381859715 -0.0753315752409487 -0.0751126021299093 -0.07486507556541219 -0.07461746757192687 -0.0743697791441862 -0.07410121032680239 -0.07383256395077215
-0.07356384100797687 -0.07313892578517572 -0.07271394061587425 -0.07228888668570815 -0.07174147191831759 -0.07119399431992757 -0.07064645519051299 -0.07000301177931405
-0.06935951215759112 -0.06871595768611893 -0.06799733339541832 -0.06727865904403575 -0.06655993601750354 -0.06578298151904854 -0.06500598266907635 -0.06422894085305524
-0.06323874644654506 -0.06224851642039433 -0.06125825231321136 -0.06010062970597015 -0.05894297938079902 -0.05778530294091341 -0.056495518417370945 -0.05520571330869529
-0.053915889230035034 -0.05252175566463117 -0.0511276079614846 -0.04973344771637441 -0.048257338458581045 -0.04678122091419736 -0.04530509664114732 -0.04376530344645622
-0.04222550730614005 -0.04068570972940228 -0.03908480153281276 -0.03748389543402454 -0.035882992917738006 -0.034238418336621446 -0.03259385057154475 -0.030949291067154702
-0.029274219965719103 -0.027599160123506182 -0.025924112935649283 -0.024228771347169244 -0.022533445223990915 -0.020838135905698614 -0.019130709165742266 -0.017423301889178244
-0.01571591535575067 -0.01388083069901175 -0.012045768583657216 -0.010210730477536028 -0.008300892677427403 -0.006391081160924442 -0.0044812974713397 -0.002529370747731654
