data/Data_walking/true_theta_logs.npy (npy, 96096 bytes, 1 tensors)

array f8 [2999, 4]
00000000: c530 82e4 e3d1 7b3f 2582 c967 23fb a13f
00000010: 8290 733f b076 d13f 703e bd73 acc3 ee3f
00000020: b399 605e 7fdc 7b3f 1b98 3548 c4fa a13f
00000030: c8fd b6b0 5476 d13f 82e9 1683 b9c3 ee3f
00000040: b399 605e 7fdc 7b3f 1b98 3548 c4fa a13f
00000050: c8fd b6b0 5476 d13f 82e9 1683 b9c3 ee3f
00000060: b399 605e 7fdc 7b3f 1b98 3548 c4fa a13f
00000070: c8fd b6b0 5476 d13f 82e9 1683 b9c3 ee3f
00000080: b399 605e 7fdc 7b3f 1b98 3548 c4fa a13f
00000090: c8fd b6b0 5476 d13f 82e9 1683 b9c3 ee3f
000000a0: 085a 65e5 0289 903f 4abe 63bc 6357 a03f
000000b0: 881c 45cf 17e6 40bf f7eb c0b7 c1fa ef3f
000000c0: 0985 c881 1189 903f 6f26 c4dd 2d57 a03f
000000d0: b303 57c2 fce4 40bf d486 6dd1 c1fa ef3f
000000e0: cbe9 bb2d 3289 903f 0ea7 54f8 ae56 a03f
000000f0: 7e6c ce21 7ae5 40bf cf43 060e c2fa ef3f
00000100: 767e 8f1a 6389 903f fd93 4257 f055 a03f
00000110: 6a18 1ec9 59e6 40bf 1d6b 0e69 c2fa ef3f
00000120: 65ef 7c9b a489 903f d400 9ea8 f254 a03f
00000130: 6fe7 b1de 9ce7 40bf 00c4 1de2 c2fa ef3f
00000140: 9778 10c7 f689 903f c5d0 3cb6 b553 a03f
00000150: 5bbe 5551 5ce9 40bf 6740 4679 c3fa ef3f
00000160: e44d 25c8 598a 903f 550f 9613 3952 a03f
00000170: 23f4 61c5 c5eb 40bf a2bb b02e c4fa ef3f
00000180: a548 b985 cd8a 903f d326 9a25 7d50 a03f
00000190: 2de0 f92a 9fee 40bf 50d1 2502 c5fa ef3f
000001a0: 3d17 6ef7 518b 903f 8d62 b01c 824e a03f
000001b0: 035c c449 e8f1 40bf 756c 83f3 c5fa ef3f
000001c0: 645c 6b13 e78b 903f 2bd5 942f 484c a03f
000001d0: bf79 5b12 a1f5 40bf 3dfc a202 c7fa ef3f
000001e0: eba8 b6ce 8c8c 903f fd3d af9b cf49 a03f
000001f0: 70b2 2b76 c9f9 40bf fe43 592f c8fa ef3f
00000200: 96d8 381d 438d 903f 817c 0fa5 1847 a03f
00000210: 944d ae66 61fe 40bf 7263 7679 c9fa ef3f
00000220: c852 c2f1 098e 903f b5dd 6896 2344 a03f
00000230: 480c 87d5 6803 41bf 6ce0 c5e0 cafa ef3f
00000240: 05b5 0f3e e18e 903f 7fc1 0cc1 f040 a03f
00000250: 2d17 aab4 df08 41bf 92b1 0e65 ccfa ef3f
00000260: 84eb cef2 c88f 903f bd9a e47c 803d a03f
00000270: 4927 86f6 c50e 41bf 0f4a 1306 cefa ef3f
00000280: e4b4 a4ff c090 903f a14d 6b28 d339 a03f
00000290: c84a 328e 1b15 41bf 43a6 91c3 cffa ef3f
000002a0: 7a8d 3253 c991 903f 64f0 a528 e935 a03f
000002b0: 9186 9f6f e01b 41bf 6759 439d d1fa ef3f
000002c0: c9fe 1cdb e192 903f 52f2 1be9 c231 a03f
000002d0: 4119 ce8f 1423 41bf 149c dd92 d3fa ef3f
000002e0: 434f 1284 0a94 903f 10ad cedb 602d a03f
000002f0: 5c50 06e5 b72a 41bf c25b 11a4 d5fa ef3f
00000300: b88e d139 4395 903f 5164 3079 c328 a03f
00000310: bde5 1467 ca32 41bf 194b 8bd0 d7fa ef3f
00000320: 3dfb 31e7 8b96 903f 28b8 1a40 eb23 a03f
00000330: 3a92 8a0f 4c3b 41bf 22f3 f317 dafa ef3f
00000340: b0ba 2a76 e497 903f 288e c4b5 d81e a03f
00000350: e817 ffd9 3c44 41bf 4ac5 ef79 dcfa ef3f
00000360: 82e4 dacf 4c99 903f 8875 b765 8c19 a03f
00000370: f45a 57c4 9c4d 41bf 312e 1ff6 defa ef3f
00000380: 8ad7 91dc c49a 903f bb8a c4e1 0614 a03f
00000390: 0aa7 0ecf 6b57 41bf 3ea9 1e8c e1fa ef3f
000003a0: c4d7 d783 4c9c 903f efde f8c1 480e a03f
000003b0: 3ad3 82fd a961 41bf e9d4 863b e4fa ef3f
000003c0: 49ef 76ac e39d 903f b467 91a4 5208 a03f
000003d0: cd5f 4356 576c 41bf c287 ec03 e7fa ef3f
000003e0: 570e 843c 8a9f 903f 917b ee2d 2502 a03f
000003f0: 7a5b 63e3 7377 41bf 21e6 e0e4 e9fa ef3f
00000400: d665 6819 40a1 903f adbf 0d11 82f7 9f3f
00000410: 81e1 cdb2 ff82 41bf 7378 f1dd ecfa ef3f
00000420: fdf7 ea27 05a3 903f fcd8 b4c9 4dea 9f3f
00000430: 843e 9dd6 fa8e 41bf 2e42 a8ee effa ef3f
00000440: 815a 3a4c d9a4 903f ff94 c8f2 aedc 9f3f
00000450: 2a9e 7465 659b 41bf 4cd9 8b16 f3fa ef3f
00000460: 0ca6 f669 bca6 903f 55a3 1905 a7ce 9f3f
00000470: f0fa db7a 3fa8 41bf 597e 1f55 f6fa ef3f
00000480: 758e 3b64 aea8 903f 8814 3685 37c0 9f3f
00000490: 286d 9e37 89b5 41bf f934 e3a9 f9fa ef3f
000004a0: 599f aa1d afaa 903f 0aaf 4b03 62b1 9f3f
000004b0: 14c4 2ac2 42c3 41bf eadc 5314 fdfa ef3f
000004c0: 5962 adb7 6aaf 903f 3d66 7422 7ad0 9f3f
000004d0: 45e5 abb5 2801 42bf dced 4bbc f4fa ef3f
000004e0: f479 a7bd 9bb5 903f 9bb1 dfca f507 a03f
000004f0: 76cf 07b0 c099 42bf b664 e710 e4fa ef3f
00000500: d5d8 5b94 3abc 903f 3ba4 e4ed d132 a03f
00000510: 9685 2366 81ad 43bf 7ec8 1e90 cdfa ef3f
00000520: aeef b8c3 71c2 903f b774 f78e 0e65 a03f
00000530: 5629 b781 204f 45bf cd69 5715 b3fa ef3f
00000540: 2da6 5305 96c7 903f 6ac7 bf8a e09b a03f
00000550: 4e46 b21f 9e8a 47bf 2840 ed05 96fa ef3f
00000560: aff3 6075 1ecb 903f 3643 2efe 32d5 a03f
00000570: 6679 6311 1566 4abf 12a6 9e72 77fa ef3f
00000580: 48e2 b12a 9fcc 903f 4f29 f676 790f a13f
00000590: 68db fa5d 2ce3 4dbf a71d 062d 58fa ef3f
000005a0: 68d2 7258 c4cb 903f ff38 ff19 8d49 a13f
000005b0: 099e 8276 0700 51bf cfee 3bd7 38fa ef3f
000005c0: d497 b374 4fc8 903f 95e3 30ee 9482 a13f
000005d0: d83d cb3c 275c 53bf 0054 cbed 19fa ef3f
000005e0: e213 ee90 82ba 903f 30f5 aa78 79cd a13f
000005f0: 9b6c fa0f 0261 56bf 3242 1be4 f1f9 ef3f
00000600: 354d 6d7e 78a0 903f a917 c5f0 3a1a a23f
00000610: 531e c6f0 29f7 59bf c055 d783 c9f9 ef3f
00000620: cbf1 bb1b 747a 903f d799 52a4 bd66 a23f
00000630: 5026 d58e 9313 5ebf 3a59 85dc a1f9 ef3f
00000640: 865e d3a2 cd48 903f 5065 fc51 c6b1 a23f
00000650: 496c 876b a554 61bf 7785 e988 7bf9 ef3f
00000660: 7440 232b e50b 903f fa85 6d51 9ffa a23f
00000670: ca21 1a5c 48d5 63bf 84c6 e1dc 56f9 ef3f
00000680: 1ceb 5aa8 3688 8f3f b65e 3845 e340 a33f
00000690: 7543 4d86 c184 66bf 6bf5 b400 34f9 ef3f
000006a0: 5133 455b 9ae3 8e3f ad60 0633 5d84 a33f
000006b0: b9ce a0cb 3d5c 69bf 9122 d401 13f9 ef3f
000006c0: 1f99 c37b a52a 8e3f 0a7d 3992 f6c4 a33f
000006d0: 2990 c244 2d55 6cbf 2336 53dc f3f8 ef3f
000006e0: ba6c 27d1 f95d 8d3f 76e3 cd83 a902 a43f
000006f0: 64ea 467c 5269 6fbf b78a c782 d6f8 ef3f
00000700: ad6b 7367 2c7e 8c3f ab6d 6ea3 7c3d a43f
00000710: bee1 5bef 6349 71bf 9626 5fe0 baf8 ef3f
00000720: d3e7 8759 9daf 8b3f e23d 5edb 2973 a43f
00000730: d0ef 960b addd 72bf e450 7a7d a0f8 ef3f
00000740: 00a4 8d1a 9cf1 8a3f bb22 2097 19a4 a43f
00000750: dde0 24d3 c66e 74bf 507e 1656 87f8 ef3f
00000760: 2e71 af29 8c43 8a3f 4b97 d672 95d0 a43f
00000770: 35ba ba41 46fa 75bf b918 1073 6ff8 ef3f
00000780: cfa7 2e56 e4a4 893f 1f55 9b48 d3f8 a43f
00000790: 12bd f52d 4d7e 77bf 2071 91e3 58f8 ef3f
000007a0: f1d5 9627 2e15 893f 66bb fc06 061d a53f
000007b0: a9b9 5b22 acf8 78bf 1544 39b5 43f8 ef3f
000007c0: f144 4cce f993 883f 2649 8240 523d a53f
000007d0: de09 c2ca c167 7abf 357e 30fa 2ff8 ef3f
000007e0: d42a 04b6 e020 883f d57b 9d14 d959 a53f
000007f0: bd15 f43c 23ca 7bbf 1e54 03c3 1df8 ef3f
0.006791963773263803 0.03511915819104087 0.2728691692011652 0.9613859425098337 0.006802079709848407 0.03511632329427546 0.27284734017663625 0.9613921699849899
0.006802079709848407 0.03511632329427546 0.27284734017663625 0.9613921699849899 0.006802079709848407 0.03511632329427546 0.27284734017663625 0.9613921699849899
0.006802079709848407 0.03511632329427546 0.27284734017663625 0.9613921699849899 0.016147656680312067 0.031916729685573644 -0.0005157104738281607 0.9993599499642859
0.016147874399512072 0.03191512424571107 -0.0005155786681641988 0.9993599977862808 0.016148361245521586 0.0319113424432783 -0.0005156370494775601 0.9993601106563065
0.016149090286374755 0.0319056612509385 -0.0005157411962819606 0.9993602802163398 0.01615006636642082 0.03189810093226844 -0.0005158916441267823 0.9993605057080686
0.016151290798113917 0.031888655181690186 -0.0005161000032511508 0.9993607872620601 0.016152766076016692 0.03187731136406905 -0.0005163875273549483 0.9993611251755861
0.01615449074444854 0.03186408123026543 -0.0005167271792307964 0.9993615190456158 0.016156464316302566 0.03184897041518751 -0.0005171188563818377 0.9993619686241703
0.016158686218514254 0.03183198529078831 -0.0005175625307989802 0.9993624736306469 0.016161155812064825 0.031813133005581286 -0.000518058175968129 0.9993630337504553
0.016163872393200572 0.03179242148302653 -0.000518605765466184 0.9993636486352513 0.016166835194399792 0.0317698594193944 -0.0005192052731718489 0.9993643179032126
0.016170043385433725 0.031745456281330846 -0.0005198566735351344 0.9993650411393438 0.016173496074525243 0.03171922230312905 -0.0005205599418769215 0.9993658178958088
0.016177192309602698 0.03169116848371379 -0.000521315054714166 0.9993666476922914 0.016181131079645784 0.03166130658334579 -0.0005221219901125497 0.999367530016383
0.016185311316120363 0.031629649120053074 -0.0005229807280649272 0.9993684643239953 0.016189731894498804 0.031596209365796324 -0.0005238912508951465 0.9993694500398009
0.016194391635862643 0.03156100134237561 -0.0005248535436869689 0.9993704865576972 0.01619928930858382 0.031524039817086014 -0.0005258675947357801 0.9993715732412947
0.016204423630081066 0.031485340298129494 -0.0005269333960249397 0.9993727094244289 0.016209793268647583 0.031444919029790575 -0.0005280509437238499 0.9993738944116953
0.016215396845346265 0.03140279298738365 -0.0005292202387085787 0.9993751274790055 0.01622123293596879 0.03135897987197988 -0.0005304412871028682 0.9993764078741637
0.016227300073054427 0.03131349810492115 -0.0005317141008402915 0.9993777348174648 0.016233596747964842 0.031266366822129694 -0.0005330386982461543 0.9993791075023105
0.016240121413010865 0.03121760586822091 -0.0005344151046378505 0.9993805250958431 0.016246872483627318 0.031167235790428002 -0.0005358433529440575 0.9993819867395979
0.01625384834059185 0.03111527783234624 -0.0005373234843419384 0.9993834915501707 0.016261047332283993 0.031061753927505837 -0.0005388555489103924 0.9993850386199014
0.016268467776980395 0.031006686692780977 -0.000540439606300157 0.9993866270175708 0.016276107965182394 0.030950099421644096 -0.0005420757264201792 0.9993882557891116
0.016294162235995866 0.031068714478442273 -0.0005494545724495167 0.9993842771213468 0.016317780924390804 0.031310730948322894 -0.0005676451547160638 0.9993763284830013
0.01634303598890415 0.03163772610634693 -0.0006005174475626647 0.9993655981873102 0.016366746493289668 0.0320210027236753 -0.0006503018116117791 0.9993529717278818
0.016386360240096366 0.03243924802508398 -0.0007184288109717914 0.9993391147381816 0.016399837412098325 0.03287658074180515 -0.0008056261893008398 0.9993245352426945
0.0164055700119852 0.033321185847926864 -0.00091209093439813 0.9993096236584521 0.016402309320897507 0.03376427595468278 -0.0010376046066457054 0.9992946819106353
0.01638912343778272 0.03419938476185461 -0.0011816390207747187 0.9992799419802623 0.016336479278397216 0.03477077100749637 -0.0013659019604464254 0.9992608504490532
0.01623714706086084 0.03535637082181548 -0.0015848073554439914 0.9992415976545814 0.016092123215445214 0.03594010001079411 -0.0018357220645434276 0.9992226893471419
0.015902722418870606 0.03651256323628138 -0.002115557752615103 0.9992044138017907 0.01567037654678001 0.03706834668151866 -0.0024210370327788265 0.9991869272327709
0.015396525395194476 0.037604429435473305 -0.0027488498475708952 0.9991703046613741 0.015082555685376116 0.038119232634188684 -0.0030957419339986106 0.9991545711246365
0.014729779090384696 0.03861208472221207 -0.0034585842277739154 0.9991397193168193 0.014339400954602833 0.03908281072558044 -0.0038344012302478515 0.999125724247583
0.01391253176409698 0.0395316075802968 -0.0042203811369678195 0.9991125471362519 0.013518552107587489 0.0399411278041233 -0.004605937917798245 0.999099965165922
0.0131561465838832 0.0403144833545119 -0.004988457354834189 0.9990879708675013 0.012824149152884514 0.04065386797746714 -0.005365633430911167 0.9990765807458707
0.012521537666390884 0.04096088658631402 -0.005735684855024974 0.9990658230485998 0.012247429450193944 0.041237057068761726 -0.006096527480379179 0.9990557231450362
0.012000991447651961 0.04148346936666973 -0.006446606636134137 0.9990463148605558 0.011781459383674621 0.04170111061716112 -0.0067845703590640434 0.9990376290176106
